…
4567## embedding_lstm models model = Embedding_CuDNNLSTM_model(max_words, max_len)# model compilemodel.compile(optimizer='adam', loss='binary_crossentropy', metrics=['acc', auroc])model.summary() __________________________________________________________________________________________________ Layer (type) Output Shape Param # Connected to ================================================================================================== input_1 (InputLayer) (None, None) 0 __________________________________________________________________________________________________ embedding_1 (Embedding) (None, 306, 128) 12800000 input_1[0][0] __________________________________________________________________________________________________ spatial_dropout1d_1 (SpatialDro (None, 306, 128) 0 embedding_1[0][0] __________________________________________________________________________________________________ bidirectional_1 (Bidirectional) (None, 306, 128) 99328 spatial_dropout1d_1[0][0] __________________________________________________________________________________________________ bidirectional_2 (Bidirectional) (None, 306, 128) 99328 bidirectional_1[0][0] __________________________________________________________________________________________________ global_average_pooling1d_1 (Glo (None, 128) 0 bidirectional_2[0][0] __________________________________________________________________________________________________ global_max_pooling1d_1 (GlobalM (None, 128) 0 bidirectional_2[0][0] __________________________________________________________________________________________________ concatenate_1 (Concatenate) (None, 256) 0 global_average_pooling1d_1[0][0] global_max_pooling1d_1[0][0] __________________________________________________________________________________________________ dense_1 (Dense) (None, 32) 8224 concatenate_1[0][0] __________________________________________________________________________________________________ batch_normalization_1 (BatchNor (None, 32) 128 dense_1[0][0] __________________________________________________________________________________________________ dense_2 (Dense) (None, 1) 33 batch_normalization_1[0][0] ================================================================================================== Total params: 13,007,041 Trainable params: 13,006,977 Non-trainable params: 64 __________________________________________________________________________________________________ Train model callback함수는 아래와 같이 사용— ReduceLROnPlateau() : 초기에 학습률을 높게 지정한 후 일정 epoch동안 성능이 향상되지
…
